…
EbxrbA=s64","userId":"18286757914794556648"}},"outputId":"c01d5954-679b-4c19-f905-c5b545f34df0"},"source":["print(model.summary())"],"execution_count":59,"outputs":[{"output_type":"stream","text":["Model: \"model_6\"\n","_________________________________________________________________\n","Layer (type)                 Output Shape              Param #   \n","=================================================================\n","input_7 (InputLayer)         [(None, 32, 128, 1)]      0         \n","_________________________________________________________________\n","conv2d_30 (Conv2D)           (None, 32, 128, 32)       832       \n","_________________________________________________________________\n","activation_30 (Activation)   (None, 32, 128, 32)       0         \n","_________________________________________________________________\n","max_pooling2d_30 (MaxPooling (None, 16, 64, 32)        0         \n","_________________________________________________________________\n","conv2d_31 (Conv2D)           (None, 16, 64, 64)        51264     \n","_________________________________________________________________\n","activation_31 (Activation)   (None, 16, 64, 64)        0         \n","_________________________________________________________________\n","max_pooling2d_31 (MaxPooling (None, 8, 32, 64)         0         \n","_________________________________________________________________\n","conv2d_32 (Conv2D)           (None, 8, 32, 128)        73856     \n","_________________________________________________________________\n","activation_32 (Activation)   (None, 8, 32, 128)        0         \n","_________________________________________________________________\n","max_pooling2d_32 (MaxPooling (None, 4, 16, 128)        0         \n","_________________________________________________________________\n","conv2d_33 (Conv2D)           (None, 4, 16, 128)        147584    \n","_________________________________________________________________\n","activation_33 (Activation)   (None, 4, 16, 128)        0         \n","_________________________________________________________________\n","max_pooling2d_33 (MaxPooling (None, 4, 8, 128)         0         \n","_________________________________________________________________\n","conv2d_34 (Conv2D)           (None, 4, 8, 256)         295168    \n","_________________________________________________________________\n","activation_34 (Activation)   (None, 4, 8, 256)         0         \n","_________________________________________________________________\n","max_pooling2d_34 (MaxPooling (None, 4, 8, 256)         0         \n","_________________________________________________________________\n","tf_op_layer_Reshape_6 (Tenso [(None, 32, 256)]         0         \n","_________________________________________________________________\n","bidirectional_12 (Bidirectio (None, 32, 128)           394240    \n","_________________________________________________________________\n","bidirectional_13 (Bidirectio (None, 32, 80)            133760    \n","=================================================================\n","Total params: 1,096,704\n","Trainable params: 1,096,704\n","Non-trainable params: 0\n","_________________________________________________________________\n","None\n"],"name":"stdout"}]},{"cell_type":"code","metadata":{"id":"yynJVA9wD3ql","colab_type":"code","colab":{}},"source":["# %load_ext tensorboard\n","\n","# Clear
…
